predict/lstm_model.pt (torch_old, 112251 bytes, 21 tensors)

tcr_embedding.weight f4 [21, 10]
000000 00 00 00 00 00 00 00 00 00 00 00 00 00 00 00 00
       0.0 0.0 0.0 0.0
000010 00 00 00 00 00 00 00 00 00 00 00 00 00 00 00 00
       0.0 0.0 0.0 0.0
000020 00 00 00 00 00 00 00 00 67 f7 ed 3f 6c ed 31 3f
       0.0 0.0 1.8591126 0.695029
000030 9d c3 19 3f ca 3b 85 be 80 52 4d bf 86 72 33 c0
       0.6006411 -0.26022178 -0.8020401 -2.803865
000040 30 c5 1e be 35 32 28 3f 0e f0 9b 3e 5b 88 2c 3f
       -0.15504909 0.6570161 0.30456585 0.6739556
000050 5a 52 bd 3d a5 b9 64 bf 44 f7 7a bf 97 5a c9 3e
       0.09244223 -0.8934577 -0.9803355 0.39326927
000060 9c c3 c8 3e a8 3c e4 3f ce 53 13 40 8d e6 2e bf
       0.39211738 1.7831011 2.30199 -0.6832054
000070 73 ec 6f 3f 1e 16 80 3f 8d 00 62 bf cc aa 77 be
       0.9372017 1.000675 -0.8828209 -0.24186248
000080 8d b0 12 3e 3d 4a 13 bf eb 3b ab 3f 9b 29 10 bf
       0.14325161 -0.57535154 1.337766 -0.56313485
000090 c0 fb 1f bf 51 1c b3 3e c8 d9 0d c0 6e 95 56 bf
       -0.62493515 0.3498254 -2.2164173 -0.8382176
0000a0 d4 08 d6 be 96 69 23 40 00 f9 82 be 56 15 83 3f
       -0.4180361 2.5533195 -0.25580597 1.0240886
0000b0 29 b1 0c c0 0f 34 2a 3f c0 29 dc 3e cf d4 7c 3f
       -2.198313 0.66485685 0.43000603 0.9876222
0000c0 df f2 9f 3f 6e b2 b1 3f 32 b7 aa 3e b9 cb 8f bd
       1.2495993 1.3882577 0.33342892 -0.07021279
0000d0 54 46 96 bf e1 16 15 bf 29 38 54 bc 90 e9 d1 3e
       -1.1740212 -0.58238035 -0.012952843 0.40998507
0000e0 4f e7 79 be 6d 75 98 be 57 b8 a9 3d 29 67 7f bf
       -0.24404643 -0.2977709 0.08287113 -0.99766785
0000f0 e0 aa ce 3e 08 7d 01 bf a0 18 39 3f 14 e4 53 bf
       0.40364742 -0.5058141 0.723032 -0.82769895
000100 11 cf 41 40 bb 99 09 3f 4f 6c 11 3f 18 49 0b 40
       3.0282633 0.537502 0.5680589 2.1763363
000110 62 f7 93 3f 9f 61 18 bf 6b 67 3e c0 a4 b4 56 bf
       1.155987 -0.5952396 -2.9750621 -0.83869386
000120 c0 87 d3 bd 10 df bf be 9f 26 fe bf 35 0d 89 3f
       -0.10328627 -0.3747487 -1.9855536 1.0707155
000130 35 12 11 3f fe 22 43 bd 37 95 80 bf 30 eb dc 3d
       0.56668407 -0.047640793 -1.0045537 0.10787046
000140 23 bd 55 3d 61 d5 12 bd 4a 08 d0 3f ec 2b ce bf
       0.052182328 -0.035848025 1.625253 -1.6107154
000150 a1 84 c2 be e0 7e 10 bf c2 60 0b 3f e1 cb ac 3d
       -0.37991813 -0.56443596 0.54444516 0.08437324
000160 1c 13 64 3e c9 e5 04 bf 63 ce ca 3f 81 f2 18 40
       0.22272915 -0.51913124 1.5844234 2.3898013
000170 f7 36 33 be 06 4c 0a 40 e1 65 34 3f 09 3b 36 c0
       -0.17501436 2.16089 0.70467955 -2.8473532
000180 53 be fe 3e 05 f6 e9 bf 4e bb c8 3e ea 90 bd bd
       0.4975458 -1.8278204 0.39205402 -0.09256156
000190 f9 6c 3b 3f a3 b6 cf 3e 41 22 0f bf c8 95 84 40
       0.73213154 0.40569028 -0.5591164 4.143284
0001a0 14 07 88 bf 71 98 04 bf 15 bd 69 3f f1 21 8b be
       -1.062716 -0.5179511 0.9130414 -0.27174333
0001b0 b9 79 8c be 5d cc b6 3e 5c 0c 01 bf c3 d1 29 3e
       -0.27436617 0.35702792 -0.50409484 0.16583924
0001c0 bc 05 1d 3f d1 e9 b2 be ab 5b 00 bf aa 48 6a bf
       0.61336875 -0.34944013 -0.50139874 -0.91517127
0001d0 3a 36 ce be 2b dc 48 3f 17 97 c4 3f 0e b1 f0 bf
       -0.40275747 0.7846095 1.5358609 -1.8804033
0001e0 71 0b 0d 3e 13 95 24 c0 5f e5 aa 3f 29 61 ac 3f
       0.13773896 -2.5715988 1.3351249 1.3467151
0001f0 99 0a f0 3f 33 02 0f 3f 0d 43 63 bf 42 92 91 3f
       1.8753234 0.5586273 -0.88774186 1.1372759
000200 92 aa 9f 3f 0d 21 40 3f a1 e5 84 3d 23 24 15 bf
       1.2473929 0.7505043 0.06489111 -0.58258265
000210 3e 6e d0 3e 3a 52 4e 3f c3 2f 36 bf 7e 41 3d bf
       0.40709108 0.8059422 -0.7116663 -0.7392806
000220 87 da a5 3f 46 02 13 bf 62 2e 97 3f d9 a4 1c bf
       1.2957314 -0.57425344 1.181103 -0.6118904
000230 3d 03 60 3f ce c9 88 bf 71 d2 f4 bf 62 ca 82 3f
       0.8750494 -1.0686586 -1.9126722 1.0218012
000240 20 ac 04 bf 10 c4 59 3e ab 97 94 bf ca 2d e6 3c
       -0.5182514 0.21266198 -1.1608785 0.028098006
000250 fb 5d 26 be 7b 83 b9 bf c0 25 b8 3f 19 42 6f 3f
       -0.16246788 -1.449325 1.438652 0.9346023
000260 8d 66 95 3e 5d c4 20 3f 93 45 56 3e 5e e6 05 40
       0.29179803 0.62799627 0.20924978 2.0921855
000270 c0 20 88 be 36 67 41 3e 2a d0 73 bf 31 fc a0 3e
       -0.26587486 0.18887028 -0.9523951 0.31442407
000280 12 cf 4f 3e b7 bb 93 bf 7b 70 5d 3f 04 8e d7 be
       0.20293835 -1.1541661 0.86499757 -0.42100537
000290 c0 79 9c 3e 2f f1 b8 be 5f e1 02 c0 9d d6 e8 be
       0.30561638 -0.36121508 -2.0450056 -0.45476237
0002a0 44 24 51 be c5 13 00 40 03 18 da 3f 77 6b ca bd
       -0.2042399 2.0012066 1.7038578 -0.098837785
0002b0 4e 3d 96 bf 26 0a 2a 3f e8 f0 06 c0 66 3f f9 bd
       -1.1737459 0.66421735 -2.1084538 -0.121702954
0002c0 29 51 b0 3f bf d0 a1 3d 3c 3e 4d 3d 39 b8 5a bf
       1.3774768 0.07901143 0.05010818 -0.8543735
0002d0 1b f7 ec bf eb 4b 42 3f 23 41 90 be bc f0 1b bf
       -1.8512911 0.7589709 -0.28174695 -0.60914207
0002e0 90 40 7a 3f 16 40 d5 be 2c 80 38 3e 48 74 0d bf
       0.97754765 -0.41650456 0.18017644 -0.55255556
0002f0 fe 18 00 be ad da 51 be 1a 83 19 3f 8f 7e a8 3e
       -0.12509534 -0.20493574 0.5996567 0.32909057
000300 1b 01 a8 3f 0a 46 a0 3e 9a e7 94 3f fd 22 15 3f
       1.3125337 0.31303436 1.1633179 0.5825651
000310 ee 6d 3a bf 8b 3f 3a bf d3 0f 8b 3f 88 cc 9a bf
       -0.7282399 -0.7275321 1.0864204 -1.2093668
000320 fb 37 a1 be 8c ec 2e 3f 49 e4 38 be f6 fb da 3f
       -0.31488022 0.6832969 -0.18055834 1.7108142
000330 25 6d 39 3f 46 a8 93 3f 59 7f d1 bf 45 c9 93 3d
       0.72432166 1.1535728 -1.6366988 0.072161235
000340 59 fd c5 3f de 8e 0e 40
       1.546794 2.22747

pep_embedding.weight f4 [21, 10]
000000 00 00 00 00 00 00 00 00 00 00 00 00 00 00 00 00
       0.0 0.0 0.0 0.0
000010 00 00 00 00 00 00 00 00 00 00 00 00 00 00 00 00
       0.0 0.0 0.0 0.0
000020 00 00 00 00 00 00 00 00 44 2d 70 bf 32 1d a2 bf
       0.0 0.0 -0.9381907 -1.266516
000030 6e 5c 10 3f 20 97 9c 3f 1e b7 db be 7e 65 16 40
       0.56391037 1.223362 -0.42913145 2.3499446
000040 65 ac 0f 3f 69 fa 4b bf af bf 92 3e b5 4d 06 40
       0.5612243 -0.7967897 0.28661868 2.0984929
000050 46 5f 0e bf 66 63 54 3d be 43 ce 3f 65 3a 01 40
       -0.55614126 0.051852606 1.6114423 2.0191891
000060 9b 07 8e bc 0a 81 8d be dd 0b e7 bc 80 97 ad bf
       -0.017337611 -0.27637511 -0.028203899 -1.3561859
000070 69 c5 57 3e af 96 95 bf 8d 94 dd bf 5c 9c b4 3f
       0.210714 -1.168661 -1.7310959 1.4110217
000080 58 29 ac 3f f4 94 84 be 87 50 09 bf 05 64 90 be
       1.3450117 -0.25894892 -0.536385 -0.2820131
000090 08 be 4b bf e7 a9 ed bf c0 de 28 3f b4 38 58 3e
       -0.7958684 -1.8567475 0.6596489 0.2111538
0000a0 0e f8 b9 3f bc 5c a4 3e b8 2d 39 bd 44 88 96 be
       1.4528825 0.32102 -0.045209616 -0.29400837
0000b0 88 e5 92 be aa 2a 17 bf eb e2 af be 71 d7 82 bf
       -0.28690743 -0.59049475 -0.34352812 -1.0221997
0000c0 60 7c 1b be 21 33 1c bd 00 37 67 3d 16 2b ba 3d
       -0.15184164 -0.038134698 0.056448936 0.09090249
0000d0 97 91 c7 be 45 6f d4 3e 0b 8d 99 be 33 db a4 bf
       -0.38978264 0.41491142 -0.2999042 -1.2879394
0000e0 ae b0 fa 3d 1b 1e 4c bf fb 29 64 bf 7b 67 fb be
       0.1224073 -0.7973344 -0.8912656 -0.49102387
0000f0 9e 99 3d bf 51 42 81 3f 3e 85 a6 bd 81 02 a4 bf
       -0.74062526 1.0098363 -0.08130883 -1.2813264
000100 23 b5 8e 3f 7b 4b 22 bf 45 40 b5 3e c8 46 a4 be
       1.1149029 -0.63396424 0.35400596 -0.32085252
000110 a0 c9 52 bc 90 a6 e8 3d 09 9b c0 3e 15 9f dd be
       -0.012865454 0.11359894 0.37618282 -0.43285432
000120 ec 73 2a 3d 84 95 c2 3e cc fa 94 bf 0d 60 93 3e
       0.041614458 0.38004696 -1.1639037 0.28784218
000130 8a ac 90 3f 71 f9 5e 3e 4d 66 72 bf 97 c6 48 bf
       1.1302655 0.21774842 -0.9468735 -0.78428024
000140 5a 91 8b 3e 32 57 7c 3d 9e 9d 18 bc 03 57 1f be
       0.27259332 0.061606593 -0.009314923 -0.15560536
000150 80 24 d3 3f 57 1f 33 3f b8 e7 0f 3f df 1f 11 3f
       1.6495514 0.69969696 0.5621295 0.56689256
000160 e1 20 55 bf c8 b0 95 3e d7 60 3d 3f 89 08 b6 bf
       -0.83253294 0.29236436 0.7397589 -1.4221355
000170 2b ff bd be ff 3c 4d bd d3 d4 99 3e ea 1d 8c 3e
       -0.3710874 -0.050107 0.30045184 0.27366573
000180 32 c3 22 3f 8a 84 a2 3e 26 78 48 3e 7d e3 e6 bd
       0.63579094 0.31741744 0.19577083 -0.11273859
000190 52 18 ca be aa 5d f0 bd f6 82 8d 3f 42 f5 bb bf
       -0.3947168 -0.11736615 1.1055591 -1.4684222
0001a0 dd 55 84 3e 43 09 9d 3f c5 8d b9 3f 0f f3 65 3f
       0.25846758 1.2268451 1.449639 0.89824003
0001b0 cb 72 90 bf 0f cd bc be 98 cb 83 bf 63 32 27 bf
       -1.1285032 -0.36875197 -1.0296507 -0.6531126
0001c0 c1 14 cc bf cd 39 62 3f ff 8d 11 be 04 fa 73 bf
       -1.5943834 0.88369447 -0.14214323 -0.9530337
0001d0 a1 26 39 bf fa c6 36 bf 6d a1 7b 3f f1 26 b9 3d
       -0.7232457 -0.71397364 0.9829319 0.090406306
0001e0 7d 93 1a 3f 29 fa 0d bf d1 7b 7f 3e 93 92 e8 bf
       0.603813 -0.5545984 0.24949576 -1.8169731
0001f0 59 e7 8b 3d 98 7e b8 be 8e d2 98 3d 43 7d 67 bf
       0.068312354 -0.36034083 0.07462035 -0.9042551
000200 9a e5 26 3f 0d ff cc bf fd 6e 62 3f e2 2f 97 3f
       0.65194094 -1.6015335 0.88450605 1.1811488
000210 22 1d 26 3e 13 54 0c be 30 fb aa be 9a c8 6b be
       0.16222051 -0.13703947 -0.33394766 -0.23025742
000220 0d 8c 0a bf 42 b5 cf 3f 82 ef 44 bf 35 79 49 be
       -0.5411995 1.622719 -0.7692796 -0.19675143
000230 8e 1f e6 bf 11 75 1c bc 2d 41 f1 bd bf e9 5a 3d
       -1.797838 -0.009549395 -0.117800094 0.053445574
000240 a0 c1 9b bf e3 78 68 3e c7 43 0f 3f 49 96 ba 3f
       -1.2168465 0.22702365 0.55962795 1.4577113
000250 e7 53 a9 3f 51 8d 16 bf 4b 21 75 bf e6 ba fe 3f
       1.322873 -0.5880938 -0.95753926 1.9900787
000260 30 cf 47 bf e6 c6 59 3f b5 d1 25 3f a6 d8 a8 3f
       -0.7805052 0.8506912 0.6477311 1.3191116
000270 96 b8 00 bd ff fa b2 3e a2 1f 6f bd f0 a6 69 bf
       -0.031426035 0.3495712 -0.058379777 -0.9127035
000280 ce ca 0e 3c ac e4 44 be 87 62 06 3f 54 f5 b4 bf
       0.008715345 -0.19227856 0.5249409 -1.4137368
000290 55 ec 22 bf 9e 8e 00 c0 18 b0 12 3f 6f 55 31 bf
       -0.63641864 -2.0087047 0.5729995 -0.69270986
0002a0 ee 3b 93 bf 6d 3e 27 3f 13 a1 7f 3f 34 e2 85 3f
       -1.1502664 0.6532963 0.99855155 1.0459657
0002b0 35 1b 89 3e 82 b8 e7 3e 38 8d 94 3e af 28 d1 3d
       0.2677857 0.45257956 0.2901399 0.10212838
0002c0 5e 7a c5 bf 99 2b 07 bf 68 8a 2b bf 71 18 95 3f
       -1.5427969 -0.528009 -0.67008066 1.1648084
0002d0 f0 9a 3f 3f 65 64 52 3f 0b d8 12 3d ae 54 d2 be
       0.7484579 0.8218444 0.035850566 -0.4108023
0002e0 cd 31 ed be 46 d7 ae be 74 46 dd be cd 3b c7 3e
       -0.46327057 -0.34148616 -0.43217814 0.38912812
0002f0 94 a8 15 3f 17 e9 d5 3f fa 82 e8 bd ce d1 dd be
       0.58460355 1.6711758 -0.11353107 -0.4332413
000300 26 f3 93 bd 61 f9 a0 3f 12 89 eb bf 45 11 c4 3f
       -0.07224111 1.2576104 -1.8401206 1.531777
000310 a2 b7 ee 3d 00 8a a6 be 1b 23 f8 3d 85 de 3a bf
       0.11656119 -0.3252716 0.12116071 -0.7299579
000320 0d 7a b5 3e 0e d3 25 bf bf 66 ce bd ed 5e 24 bf
       0.3544468 -0.6477517 -0.10078191 -0.64207345
000330 17 51 88 be 0e 8a 1c bf cb 05 01 bd 3b 6a 38 3f
       -0.26624367 -0.61148155 -0.031499665 0.72037095
000340 3e aa c5 3d 72 32 f1 3e
       0.09651612 0.471088

tcr_lstm.weight_ih_l0 f4 [120, 10]
000000 5e a2 9d 3c 2e 99 21 3e 8c bd b1 be 4e 45 66 3e
       0.019242462 0.1578109 -0.34714925 0.22487375
000010 07 f2 a5 be 34 be a3 3e a4 6a a8 3e a6 de 67 bd
       -0.32411215 0.3198105 0.3289386 -0.05660882
000020 ff df af bd 9f 4a 13 be 5f ec 82 be ef 7f 61 bd
       -0.08587646 -0.14383934 -0.25570962 -0.055053648
000030 a6 7c 88 be 15 8a 82 3f 27 25 00 be 94 71 84 3e
       -0.266576 1.0198389 -0.12514172 0.25867903
000040 7b fc 58 be eb 48 90 be a5 b0 62 be f2 50 50 3e
       -0.21190064 -0.28180632 -0.22137697 0.20343378
000050 67 f1 4a 3e 92 b9 54 be e4 7d 1d 3f 22 c6 10 bf
       0.1981865 -0.20773914 0.6152022 -0.56552327
000060 a8 39 e9 3e a5 7c d2 3e 42 9f 0d 3e a7 d5 64 3e
       0.455518 0.4111072 0.13830283 0.22347127
000070 5e b2 76 3f a2 6a f3 bd 91 1d 3d 3d ce 4a 5a 3d
       0.96365917 -0.11885573 0.046170775 0.053293996
000080 0c f3 2d 3e 89 b0 0a 3e af f0 7a 3d 68 9b 93 bc
       0.16987246 0.13543905 0.06126469 -0.01801844
000090 d0 f1 fa bd 76 31 3e 3e 3c 56 77 3e a6 77 68 bd
       -0.12253153 0.18573555 0.2415399 -0.05675473
0000a0 09 02 37 3f 59 18 80 3f 39 83 32 be dc 06 3a 3f
       0.7148748 1.000743 -0.1743287 0.72666717
0000b0 bf 35 7c 3e 4d 59 a0 be 6c 7d 04 3e 14 5f 85 bd
       0.24629878 -0.3131813 0.1293847 -0.06512275
0000c0 33 ea b4 3e b0 ba 50 3e 4a e0 b4 3e a3 1b a4 be
       0.3533493 0.20383716 0.3532737 -0.32052335
0000d0 a2 bf bf bd 66 41 fc 3e d0 e9 a3 bd 31 2a d2 3e
       -0.09362723 0.49268645 -0.080035806 0.41047814
0000e0 44 4f 16 3f 90 a3 89 be 95 49 68 3d 5d 35 52 3f
       0.587147 -0.268826 0.0567108 0.82112676
0000f0 cd f3 2d bd 27 70 ea 3e 7b 42 50 be c2 49 63 3f
       -0.042468835 0.4578869 -0.2033786 0.8878442
000100 4f 53 92 37 c4 31 40 bf a2 5b 56 be f4 af 10 3e
       1.744335e-05 -0.75075936 -0.20933393 0.14129621
000110 75 61 1b 3f 1e c5 16 3d 25 63 7c 3e 3d f0 08 3f
       0.6069558 0.03680908 0.24647196 0.53491575
000120 9b 20 84 3e fd 65 8a 3d d7 80 c4 bb b6 9c d5 be
       0.25806126 0.06757734 -0.005996804 -0.41721123
000130 11 a1 cf 3e f6 9a 4e 3e 70 00 98 bd da c1 94 3e
       0.4055257 0.201763 -0.074219584 0.29054147
000140 bc 8d 45 be 31 13 58 be cc 85 6b 3e 7f a7 63 3e
       -0.19292349 -0.21101071 0.23000258 0.22231863
000150 7f d6 09 bf 21 fc e0 3d ed 2a a6 be 49 27 40 3e
       -0.5384292 0.1098559 -0.32454625 0.18764986
000160 3e 2c ca be d6 d0 ab 3e 6e 64 46 3e 61 9a 19 3f
       -0.3948688 0.33557767 0.19374248 0.6000119
000170 eb 87 a6 3e 08 35 5e be 2d 18 d9 3e aa c5 d4 3e
       0.32525572 -0.21699917 0.42401257 0.41557056
000180 59 9e 52 bd 27 16 1e bf 1d 86 85 3f 83 d7 7f bd
       -0.051420543 -0.6175255 1.0431553 -0.062461387
000190 b3 f5 ab bb 26 2f fa 3e 1c 40 fc be 10 67 fb 3e
       -0.0052477955 0.48864096 -0.49267662 0.49102068
0001a0 08 87 24 be 90 0b d9 3e fc 08 1c 3e e8 00 60 be
       -0.16067135 0.42391634 0.15237802 -0.21875346
0001b0 51 31 d8 3e 3a c4 b7 3e 93 cc 0e bf d6 c7 6a 3e
       0.42225125 0.35891896 -0.55780905 0.22927794
0001c0 cd 5b 3e be 6d 09 5f 3e 55 8c 8a 3d 41 65 e6 3d
       -0.18589707 0.2178094 0.067650475 0.112497814
0001d0 83 5a e9 bd 09 9c 1d be 58 ca 21 3e 00 6d f1 3e
       -0.11394217 -0.15391554 0.15799844 0.47153473
0001e0 22 44 a5 bd e8 20 41 3f 8f 45 dc be 1c 7f 5f 3f
       -0.08069636 0.75440836 -0.4302182 0.8730333
0001f0 f7 b3 dc 3e 9b ac 13 3f 5f 5b 3b bd 67 57 5c bf
       0.43106052 0.5768525 -0.045741435 -0.86070865
000200 8f 4d e2 3e 7c f6 c6 bd 16 1b 05 bd 88 41 3c 3d
       0.44199798 -0.09714982 -0.032496534 0.045960933
000210 7c 8c 9d 3e 9b a7 d2 be 63 1b 0e 3f 4c bd cb 3e
       0.30771244 -0.41143498 0.5551054 0.3979286
000220 23 b2 17 3e 6e ce 6b be b0 21 87 be 90 5a 76 3e
       0.14814048 -0.23027965 -0.2639289 0.24057984
000230 1a ca e3 3e 61 5c d1 be 4f 29 2f be 9a c6 8d bf
       0.4449013 -0.40890792 -0.17105602 -1.1076233
000240 ee b0 7e 3e 5b b5 8e be 9f df 6f 3e d1 14 72 3f
       0.24872181 -0.27872738 0.23425148 0.94563013
000250 67 ef 38 bf 8c 64 69 be 6a ed ae 3e 1e e1 f0 3e
       -0.722403 -0.22792262 0.34165508 0.4704675
000260 dc 57 1b 3e b0 85 d4 3e 74 00 30 bf 97 d3 05 3f
       0.15170234 0.41508245 -0.6875069 0.52275985
000270 d7 ef d6 3e ed 88 05 be b5 9a 04 3f 05 56 cf 3e
       0.41979858 -0.13040514 0.51798564 0.40495315
000280 0a a8 87 3e 42 61 77 3e db 51 2e bc d2 f7 39 3f
       0.2649539 0.24158195 -0.010639633 0.7264377
000290 99 59 1a be 84 e8 34 3d 83 57 29 be 2f ab a5 3c
       -0.15073241 0.044167057 -0.1653729 0.020223228
0002a0 bd 9f a7 3e ec 8f cf 3e 23 da 00 3f 6b a2 d5 be
       0.32739058 0.4053949 0.5033285 -0.41725478
0002b0 39 25 f1 bd 22 85 2f be ed 2a a7 3e 1f 03 2a bf
       -0.11774678 -0.1714063 0.32649937 -0.6641101
0002c0 56 83 a5 be 5f 7d ba be ed c8 a0 bd 39 81 2f 3d
       -0.32326764 -0.36423776 -0.078508236 0.042847846
0002d0 27 f5 25 3d df 38 b5 be e1 8b 89 bd c6 69 6b 3c
       0.040517 -0.35394952 -0.06716133 0.01436848
0002e0 f2 21 2d be 00 34 00 3f 00 77 3b be ac 1b df be
       -0.1690748 0.50079346 -0.18307114 -0.435758
0002f0 ca 11 07 3f 9d 31 1d bd d8 5c 5c bb 66 1d 04 3f
       0.5276152 -0.038377393 -0.0033624675 0.5160736
000300 73 ef 2f bd 84 9d da 3e 20 56 cf be 88 16 fd bc
       -0.042952966 0.426983 -0.40495396 -0.030894533
000310 4a 2b 6c 3e 1f ac ad bd 03 f4 25 3f 0a 55 68 3d
       0.23063388 -0.08480095 0.6482546 0.056721725
000320 11 96 21 bd 19 32 43 bf 4d c6 80 3e 89 d7 9b 3b
       -0.039449755 -0.7624832 0.2515129 0.0047559184
000330 11 07 9b bd 47 f8 ef 3c 45 fc 98 3e 80 2e 07 3f
       -0.07569707 0.029293193 0.29879966 0.5280533
000340 31 73 04 3f 0f 96 2e bf e8 08 32 bf c3 d4 23 3d
       0.5173827 -0.6819772 -0.6954484 0.039997827
000350 93 36 d6 3d 6f b6 76 be 91 e0 d8 be 20 0b 95 bd
       0.10459628 -0.2409303 -0.4235883 -0.072775126
000360 43 d4 ab 3c 8d 7f 92 3e 5d 32 d7 be 8c 2e 2e 3f
       0.020975238 0.2861294 -0.42030612 0.68039775
000370 cd a7 57 bd 16 33 28 bf 0d 94 ac bc 30 cd e3 be
       -0.05265026 -0.6570295 -0.02106669 -0.44492483
000380 b2 8b c5 3b 03 ef 98 3e b0 13 98 3d 3a c5 89 3d
       0.006028616 0.2986985 0.0742563 0.06727071
000390 79 b0 2c 3f 84 47 02 bf 93 27 b7 3e 90 40 f2 be
       0.67456776 -0.50890374 0.3577238 -0.47314882
0003a0 1f b8 c9 3e 31 a9 2a bf ed 30 14 bf 5a 5e 5e bc
       0.39398286 -0.66664416 -0.57887155 -0.0135723
0003b0 2a e0 36 bf 47 de 76 3f ff 9d d9 be 84 db 36 be
       -0.714358 0.9643292 -0.42503354 -0.17857176
0003c0 7d 6c 15 3d 38 41 0d 3e a1 1c 62 be 10 44 06 3f
       0.036480416 0.1379441 -0.22081234 0.52447605
0003d0 57 5e 8f 3e a7 17 48 3d 19 89 54 be 1d 2a 9b 3d
       0.28001663 0.04885068 -0.20755424 0.07576392
0003e0 e8 5f 28 bd e4 d3 36 bf aa 06 8a be 25 79 b5 bd
       -0.04110709 -0.7141707 -0.2695821 -0.08860997
0003f0 18 de b2 be 45 6e 1d be 37 60 93 be 5d a1 01 3f
       -0.3493507 -0.15374096 -0.28784344 0.50636846

tcr_lstm.weight_hh_l0 f4 [120, 30]
000000 13 bc 53 3f 21 ae c1 3e 00 83 29 3e 42 d8 5e 3e
       0.82708853 0.37828162 0.16553879 0.21762183
000010 79 fc 98 bf eb 1e cb bd 14 63 85 bd bc f3 63 be
       -1.1952049 -0.099180065 -0.06513038 -0.22260946
000020 8c 1e 18 bf 12 60 c1 bf 45 b5 9c be c4 c0 5d be
       -0.5942161 -1.5107443 -0.30607048 -0.21655566
000030 ac 82 a3 bd 06 68 8b bf 2c ff 06 3f 0c e9 06 bf
       -0.07983908 -1.089112 0.5273311 -0.5269935
000040 fd ee b5 bf 74 3c 2f 3f 71 8e 4d bf 68 55 41 3f
       -1.4213558 0.6845162 -0.80295473 0.75520945
000050 49 b6 38 3f ec f9 40 3e 11 3c 47 bf 2a a3 2d 3f
       0.72153145 0.18845338 -0.7782603 0.67827094
000060 e7 4d 92 3e 4c ac c4 3e 83 26 37 bb b2 a9 8e 3e
       0.2857506 0.38412702 -0.0027946539 0.27863842
000070 52 a1 16 3f fa 42 31 3f 20 ab 7e 3f 0a 6d 0b 3d
       0.58839905 0.69242823 0.99479866 0.034039535
000080 0b 1b 4c 3d 78 68 b9 3e 7c e5 67 3c 13 21 83 3e
       0.049830478 0.36212516 0.014153834 0.2561117
000090 c8 61 cf 3e b4 0d 54 bf 5a 54 22 bf 59 40 77 bf
       0.4050429 -0.8283341 -0.6340996 -0.9658256
0000a0 b6 1c 1b bf 82 01 2e 3f 2a fd 96 3e 2e 9c b1 bd
       -0.60590684 0.6797105 0.29490024 -0.08672367
0000b0 bd 2b b0 3e 22 7b 02 bf 7e 05 53 be 02 42 9e 3f
       0.3440837 -0.50969136 -0.20607564 1.2363894
0000c0 4e 39 2e 3f 42 12 b5 3f 9e b8 af 3e 46 63 03 bd
       0.6805619 1.4146197 0.3432054 -0.032077096
0000d0 ea 29 81 bd 00 93 75 3e f4 09 73 3e c4 81 ab 3d
       -0.063068226 0.23981857 0.23734266 0.0837436
0000e0 ac 57 f8 be 5c 3a 8d 3f b2 72 d0 3f 9e ef 8e be
       -0.48504388 1.1033435 1.6285002 -0.27917188
0000f0 11 f0 51 be 39 74 47 3e 83 f7 4d 3f f2 d7 d4 3e
       -0.20501734 0.19477929 0.804558 0.41571003
000100 5f f8 8a 3f 44 46 0a be 16 ef 52 3e 05 b9 82 bc
       1.0857047 -0.13503367 0.20599017 -0.015957365
000110 bf 85 0a 3e 24 00 60 be 62 ed 23 3f 80 16 a3 bd
       0.13527583 -0.21875054 0.6403409 -0.07963276
000120 e3 c9 ca be ff 9c 1b 3f d4 0c 84 be c0 f7 3f be
       -0.39607152 0.6078643 -0.25791037 -0.18746853
000130 3e 9f 1c 3f c0 81 8e 3e e3 07 66 3f dd 5e d1 3e
       0.61180484 0.27833366 0.89855784 0.40892687
000140 9b 8a e0 bd a3 6e 4a bf a3 b4 85 bb c2 ec 29 3f
       -0.10963937 -0.7907507 -0.0040803715 0.6637689
000150 44 08 ff be f1 15 eb bd 5d bf 99 bc 0e 78 d7 be
       -0.49810994 -0.11478794 -0.018768007 -0.42083782
000160 81 97 67 bd a0 7d 15 3f 11 8b dc be e6 1c 7e be
       -0.05654097 0.58394814 -0.4307485 -0.24815711
000170 78 44 19 be b5 e5 53 3e 35 24 1b bf 72 ff 94 be
       -0.14967525 0.20693095 -0.6060212 -0.2910114
000180 96 e3 cf 3f 1d ce 4c bf 29 c3 0f bf 38 a1 55 3e
       1.6241329 -0.80002004 -0.56157166 0.20862281
000190 be 2e 73 be 8e 06 c5 3e 44 57 18 3f 2e dc 52 3f
       -0.237483 0.38481563 0.59508157 0.8236722
0001a0 0c 30 ed 3d 2f 0d dd be 14 2f da be 37 2e 6f 3e
       0.1158143 -0.4317412 -0.42614043 0.23357473
0001b0 b7 36 56 bf ad 61 a7 3e 05 fe d6 3e 3b 2d b8 bd
       -0.8367724 0.32691708 0.41990677 -0.08993002
0001c0 9f 4f f7 3b 66 7a ca 3e d0 90 c3 bd 55 55 d0 be
       0.0075473334 0.39546508 -0.09549105 -0.40690103
0001d0 2d 6a ef 3e 00 15 a6 bd 6c ea 32 bf 4c 4f 6c 3e
       0.46760693 -0.08109474 -0.6988895 0.23077124
0001e0 26 ee 20 be ec a3 37 be ab 06 92 3f b3 31 6b bf
       -0.15715846 -0.17933625 1.1408285 -0.9187271
0001f0 1e 3a fa 3d 90 fc d0 3c bc 89 56 be 1f 61 83 be
       0.12218116 0.025511056 -0.20950979 -0.25660035
000200 69 fc d3 3d ca 02 2b 3f 8f 1b be be af 43 a2 bf
       0.10350878 0.6680113 -0.371304 -1.2676905
000210 17 f0 af be 69 f1 6b bd e4 72 db 3e fc 38 73 3f
       -0.34362862 -0.057603274 0.42861092 0.95008826
000220 db 90 7e be 8f 0e 54 3f d4 83 d7 3e b4 fa 45 3e
       -0.24859945 0.82834715 0.42092764 0.19333917
000230 02 45 5f 3e c5 2c b2 3e 36 d9 f7 be 15 4d 12 be
       0.21803668 0.3479978 -0.48407906 -0.14287217
000240 e5 93 10 3f ed 81 16 bf 17 23 46 3e aa d8 af 3e
       0.5647567 -0.58792 0.19349323 0.3434499
000250 01 98 27 3f ac b7 84 3f a2 35 07 bf 98 04 b1 3e
       0.65466315 1.0368552 -0.5281621 0.34573817
000260 bd 5d 1d 3f 08 f0 31 bf 21 5a 4f 3e 26 22 e0 bd
       0.6147116 -0.69506884 0.20249225 -0.10944013
000270 9a dc 2b bf 82 b0 45 3e c1 ed 59 be d7 d5 37 3f
       -0.67133486 0.19305614 -0.21282102 0.7181067
000280 19 43 d0 be bd df 01 bf b3 0e 7d 3e d5 e8 3a 3f
       -0.4067619 -0.5073202 0.24712639 0.73011523
000290 9e e3 30 bf 1d 47 6e 3e 5a 55 fd bd d4 48 79 be
       -0.69097316 0.23269315 -0.12369795 -0.24344188
0002a0 49 77 64 bf 51 14 b2 3e 04 c9 43 3f c8 ee c1 3e
       -0.89244515 0.34781125 0.764786 0.37877488
0002b0 50 0e 9f bd 62 71 ae be bf 66 8b 3f 7c c1 b4 be
       -0.07766402 -0.3407088 1.0890731 -0.35303867
0002c0 67 a5 3a bf 77 11 95 be e4 49 d4 be 85 c4 05 3f
       -0.72908634 -0.29114887 -0.41462624 0.5225299
0002d0 1a 09 a3 be 0c ea 6a 3e 9f bd 6a bd 56 2d 8d be
       -0.3184288 0.22940844 -0.057309743 -0.2757365
0002e0 fb 32 e2 be d3 1a a4 3d 8a d3 aa be af 4f f5 bc
       -0.4417952 0.08012929 -0.33364516 -0.029945223
0002f0 3c e1 44 3e 70 04 9a 3e d9 77 b2 3e 15 f5 07 bf
       0.19226545 0.3008151 0.34857062 -0.5310834
000300 4b e8 a2 bd f6 7b 70 bd 4a 03 1f 3f 24 77 15 3f
       -0.079544626 -0.05871197 0.62114394 0.5838492
000310 11 88 ec 3e 4f 49 90 bf 14 9a de 3e 75 d6 8f bd
       0.4619756 -1.1272372 0.43476927 -0.07023326
000320 e7 2d 8d bf bb 73 14 bf 94 0a 72 3e 40 09 78 3f
       -1.1029633 -0.5798909 0.23636848 0.96889114
000330 a5 1f 11 be 67 49 6f bd 03 fe 8b be 12 0c 8e be
       -0.14172228 -0.05841961 -0.27342233 -0.27743584
000340 7d eb 4e bf 0e ad 5e 3f d8 ec 61 bf 21 88 ca 3e
       -0.80828077 0.8698281 -0.8825202 0.39556983
000350 51 c4 90 3f 30 d5 42 bf b5 c4 c2 3e fc 08 93 be
       1.1309911 -0.7610655 0.380407 -0.28717792
000360 71 4f e4 be 41 19 ac 3d 41 1f 93 3f be 89 c8 3e
       -0.4459186 0.08403254 1.1493913 0.3916759
000370 7a 2f b4 3e 29 6d f9 be 30 8a fd 3d 2d 76 35 bf
       0.35192472 -0.48716095 0.12379873 -0.70883447
000380 26 9c e6 3e 37 96 00 3f 92 2b 0f be 61 da 0a be
       0.45041007 0.5022921 -0.13981465 -0.13559867
000390 2f 7f a7 bd d2 7f 93 bf 25 c8 14 be 69 11 67 be
       -0.08178555 -1.1523383 -0.14529474 -0.22565235
0003a0 bf c4 09 3f b3 38 c1 be 99 97 96 3f 14 f9 92 bf
       0.53815836 -0.3773857 1.1765014 -1.1482263
0003b0 52 49 73 bf d5 e2 f4 be da f3 5f be f7 0c 2f ba
       -0.9503375 -0.4782931 -0.21870366 -0.0006677652
0003c0 f1 cd 4a 3e 74 5e 90 3e c7 d9 10 be 1c 75 2a 3f
       0.19805123 0.28197062 -0.14145575 0.66584945
0003d0 b3 f1 32 bf 4a fa 2a bf ee 5d 2d 3f 52 a0 26 be
       -0.69900054 -0.6678816 0.6772145 -0.16272095
0003e0 d6 52 10 3e 0b 9c 7f bf 85 0f 2c 3e f5 8c 64 be
       0.140941 -0.9984748 0.16802795 -0.22319396
0003f0 cd 80 fd bd 0a 77 69 3f 8d c6 16 3f 54 5e 6b bf
       -0.123780824 0.91197264 0.58896714 -0.9194081

tcr_lstm.bias_ih_l0 f4 [120]
000000 42 ac c2 3e ba 7e d8 bb 36 48 0e 3f d8 cb 43 3f
       0.38022047 -0.006606904 0.55578935 0.76482916
000010 bd 4f 9b 3d 2a 02 33 3f 11 26 69 3d f8 87 1a 3e
       0.07583568 0.6992518 0.05692107 0.1509093
000020 82 ac af 3e b4 87 4c 3f 35 03 31 be 16 de 43 3e
       0.343113 0.79894567 -0.1728638 0.19127688
000030 3a 42 59 3e 39 80 6b 3e 05 95 ff 3e 6c 4d 2f 3f
       0.2121667 0.22998132 0.4991838 0.6847751
000040 b6 ce 2c 3f fe cc 4f 3f 79 cb 05 3f 4e a3 2c 3f
       0.67502916 0.8117217 0.522636 0.67436683
000050 18 5f a9 3e de ae c0 3e db be 67 bc c2 8f 2f 3f
       0.33080363 0.37633413 -0.014144625 0.6857873
000060 53 35 0d 3c 36 d1 2b 3f 8f 06 f5 3d 83 a2 5b 3f
       0.0086186705 0.67116106 0.119641416 0.8579485
000070 f4 2e 03 3f 09 2c b2 3e a4 36 ed bd 4b a8 ac 3e
       0.5124352 0.3479922 -0.115826875 0.33722147
000080 51 8e 73 3e 62 85 b1 3d 6f 81 45 bd 10 75 c6 3c
       0.23784758 0.08668019 -0.04821914 0.024225742
000090 60 41 ee 3e d1 a8 63 3e 99 86 f5 3d 29 c5 6b bd
       0.46534252 0.22232367 0.11988563 -0.057561073
0000a0 4f 1c f2 3e 8d 6f 65 be e3 94 c1 3e d6 d4 96 3e
       0.47287223 -0.22405834 0.37808904 0.29459256
0000b0 5f d8 42 be 09 8c e4 bb 95 33 22 3d 22 11 25 be
       -0.19027852 -0.0069747013 0.039599974 -0.16119817
0000c0 4a fb 04 bc 03 88 86 be 3e 4b 1e bd 68 4f 4b be
       -0.008116553 -0.26275644 -0.038645975 -0.1985451
0000d0 67 13 54 3e a1 1a 29 bd ab 6a 3e bd df a6 61 3e
       0.20710526 -0.04128516 -0.046488445 0.22036313
0000e0 c4 67 03 3e 15 fa ab 3d 36 7a ec bd e3 98 81 3e
       0.12832552 0.08397309 -0.115467474 0.25311956
0000f0 59 d4 b5 3d a3 0a a7 bd 56 55 d9 bc fb 8f b0 bd
       0.08878393 -0.08156326 -0.02652995 -0.08621212
000100 07 9c 11 be ce af 0a 3b 03 84 1f 3d 08 44 75 3c
       -0.14219676 0.0021161917 0.038944256 0.014969833
000110 38 7e 26 be 46 db 26 be aa 70 0a bd c5 23 86 3c
       -0.16259086 -0.16294584 -0.03379885 0.016374478
000120 e6 94 0f be ef f9 cc 3c 5f 10 c8 3c 96 93 83 bd
       -0.14021644 0.025021521 0.024421869 -0.06424634
000130 60 08 b1 bd 0a 2e ef 3d a6 9e 27 be d0 fa 3d 3d
       -0.086441755 0.11678703 -0.16369113 0.04638177
000140 78 70 61 bc e8 1e 22 3e 9a 6c 5e 3d 43 6a f9 3c
       -0.013759725 0.15832102 0.05430279 0.030446177
000150 09 e3 0c be 7b 9e 24 be 5d 6c 10 bd 0f 6c c2 bd
       -0.13758482 -0.1607608 -0.035259593 -0.09493267
000160 22 08 78 3e 99 66 16 3d 34 de 12 3f 12 5c df 3e
       0.24221852 0.03671894 0.57370305 0.43624932
000170 e7 67 1c 3f 30 49 d9 3e b9 da 1b 3f a2 2c 5d 3f
       0.6109604 0.4243865 0.6088062 0.8639623
000180 32 c3 ac 3e 88 c0 3e 3f b7 64 b5 3e f7 b5 29 3f
       0.33742672 0.7451253 0.35428402 0.6629328
000190 17 f5 b8 3e 82 d9 81 3e 68 3e 10 3f 8c 6e 0f 3f
       0.3612449 0.25361258 0.56345224 0.56028056
0001a0 2d 56 3e 3f 73 24 35 3f d6 f1 0a 3f 1b a7 26 3f
       0.74350244 0.7075874 0.5427526 0.6509873
0001b0 5d b6 3f 3f 42 91 05 3f 10 b9 ca 3e 50 4b 3a 3f
       0.7488764 0.5217477 0.39594316 0.7277117
0001c0 43 14 1e 3f d0 c3 d1 3e 3f 5e ac 3e ac 63 24 3f
       0.61749667 0.40969706 0.33665654 0.6421459
0001d0 9a 97 ec 3e 1b be 50 3f 04 7e 80 3f e6 20 b9 3e
       0.46209413 0.8154008 1.0038457 0.36157912

tcr_lstm.bias_hh_l0 f4 [120]
000000 46 17 d6 3e da 57 c5 3d 07 bf db 3e 1d 4f 56 3f
       0.4181463 0.09635897 0.4291918 0.8371447
000010 63 f1 95 3e 01 97 35 3f 27 00 7c 3b a7 b4 28 3e
       0.29285726 0.7093354 0.003845224 0.16475163
000020 6b f7 bc 3e 3e 2e 1a 3f 80 7d 34 bc 7d c3 f5 3d
       0.36907515 0.6022681 -0.01101625 0.12000177
000030 6c 1b 02 3e b3 e1 66 3d 29 70 de 3e d4 40 2b 3f
       0.12705773 0.056367587 0.43444946 0.66895795
000040 e8 56 21 3f 9e ac 4a 3f 47 2a 39 3f 01 ef 47 3f
       0.63023233 0.7916964 0.72330135 0.78099066
000050 1b 8e f5 3e a0 17 20 3f 67 54 11 3e 15 60 3d 3f
       0.4795998 0.6253605 0.14192353 0.73974735
000060 d4 bf d2 bd 7f e2 2d 3f b5 c0 f0 3d 0e 1d 56 3f
       -0.102904946 0.6792373 0.11755506 0.83638084
000070 c7 a4 16 3f df 3b c6 3e d5 02 24 be a3 24 91 3e
       0.5884518 0.38717553 -0.16016705 0.28348264
000080 9b 1c 38 3e 3a 6d 5c 3d da ec 63 bd e5 07 92 bd
       0.17979662 0.053815104 -0.0556458 -0.07130412
000090 79 c8 e7 3e 73 3b a5 3e 9f b1 30 3d 11 d9 41 3d
       0.45270136 0.3227192 0.043138143 0.04732615
0000a0 b7 39 31 3f eb d9 d0 bd 0a ab ec 3e 8c 35 a5 3e
       0.6922869 -0.101978146 0.46224242 0.32267416
0000b0 64 75 1d be 42 37 c5 3c 16 3c 33 3e 49 e9 8d be
       -0.15376812 0.0240742 0.1750339 -0.27717045
0000c0 14 a1 bb bc 55 c1 d3 bd 65 c0 02 3c 86 bc 39 be
       -0.022903956 -0.103396095 0.007980441 -0.18138322
0000d0 26 1b 4e 3e 34 df 95 3d da b6 8a 3d f2 47 86 3e
       0.20127544 0.07317963 0.067731574 0.26226765
0000e0 3b 03 e7 3d 6c b6 98 bd 18 bb 44 be 70 10 9e 3e
       0.11279913 -0.07456669 -0.19211996 0.30871916
0000f0 12 0f b7 bd c9 81 97 bd 7e bf 8f 3d 18 e8 46 be
       -0.08938421 -0.073978014 0.07018946 -0.19424474
000100 28 1d ea bd 0f f1 d4 bd 2b bb ef bd 79 b7 3b 3e
       -0.11431342 -0.10397541 -0.11705621 0.18331708
000110 a8 d8 04 be 06 25 69 be 09 8d 1b bd f5 93 74 3b
       -0.12973273 -0.2276803 -0.0379763 0.0037319635
000120 df 07 3b 3e 23 b7 10 be 15 22 a9 bd 03 f4 80 3c
       0.18264721 -0.14132361 -0.08258454 0.015741354
000130 79 7c b1 3d b5 dd a8 bc af 8e 13 be 62 36 11 3e
       0.086663194 -0.02061353 -0.14409898 0.14180902
000140 14 20 20 3e 61 80 27 3e 43 6f 31 3d 72 26 58 3d
       0.15637237 0.16357566 0.043318998 0.05277104
000150 3f b5 44 3d d3 e1 e5 3d f3 dd 24 bd b0 20 27 3e
       0.048024412 0.11224713 -0.04025073 0.16321063
000160 1c 81 d2 3c b6 e9 7f 3d eb 38 b0 3e 6a 09 9d 3e
       0.02569633 0.062478743 0.34418425 0.30671245
000170 99 cb 0d 3f 71 67 8b 3e 95 4a 03 3f e0 4d 68 3f
       0.5538879 0.27227357 0.5128568 0.9074383
000180 ec af e9 3e 39 da 4e 3f 9f 05 81 3e c5 4e d0 3e
       0.4564203 0.8080173 0.251996 0.40685096
000190 96 ed 62 3e 9e cc c2 3e a5 2a 1f 3f d2 05 d5 3e
       0.22160944 0.38046736 0.62174445 0.41606003
0001a0 04 c6 29 3f 1b 3a 3b 3f 12 18 f7 3e 98 a2 e9 3e
       0.6631777 0.73135537 0.48260552 0.45631862
0001b0 c8 a7 3f 3f 1e 9f eb 3e 73 7b a7 3e b1 45 6b 3f
       0.7486539 0.46019834 0.32711372 0.91903216
0001c0 18 3f bc 3e 7d 65 1d 3f ab cc d5 3e 04 f7 ba 3e
       0.36766887 0.61482984 0.41757712 0.36516583
0001d0 ac 8a 86 3e 8f 9c 85 3f 8e a9 73 3f 72 7d 0f 3f
       0.26277673 1.0438403 0.95180595 0.5605079

tcr_lstm.weight_ih_l1 f4 [120, 30]
000000 b8 21 4b be 2b 96 1a 3e 9d 67 45 bf 40 fd 04 be
       -0.19837081 0.15096347 -0.77111226 -0.12987232
000010 ce 10 c9 bd 30 80 41 be 92 4b cc 3e ee c0 c3 3e
       -0.09817658 -0.18896556 0.39901406 0.3823313
000020 1a 3a 33 3c a6 fb 25 bb e2 be 5c 3e d6 1f 99 be
       0.010939145 -0.0025326996 0.21557191 -0.299071
000030 57 28 47 3d 21 43 8b be b4 8a 25 3e 6c e9 f3 3d
       0.048622455 -0.27199653 0.16166192 0.11909756
000040 bd a5 76 3e ee 96 82 bc 3a f8 94 3d 06 28 86 be
       0.24086662 -0.01594111 0.07273908 -0.2620241
000050 f1 26 dc 3d 9d b7 66 3e cd c7 c6 3e 78 7c 29 3e
       0.10749615 0.2253098 0.3882431 0.16551387
000060 13 d4 94 3d 63 13 1c 3e e3 0f 82 3c 0d f1 a7 be
       0.072670124 0.1524177 0.015876716 -0.32801095
000070 0e 76 f6 3c ad 13 5a be 6d 44 40 bd 54 f3 63 bd
       0.03008559 -0.21296568 -0.046940256 -0.055651978
000080 8e 44 f7 3d e4 41 8c 3e 2a 34 a2 be 04 e1 b1 3e
       0.12073623 0.2739402 -0.31680423 0.34741986
000090 c9 89 93 3e 5e dc 8e be bb 2e 58 bf 22 df c8 3e
       0.2881606 -0.27902502 -0.84446305 0.39232737
0000a0 ae f0 55 3f 29 89 d4 be a9 8d 10 bf 28 8c a3 3e
       0.83570373 -0.41510895 -0.56466156 0.31942868
0000b0 9c d9 af 3e c5 f2 ab 3e b0 0a 80 3d f7 9c a1 3c
       0.3434571 0.33583656 0.062520385 0.019728167
0000c0 ff eb d0 3e 6d 08 72 3d 8d bc 95 3e 38 d5 64 be
       0.4080505 0.059090067 0.29245415 -0.22346961
0000d0 01 e9 32 3f 97 b1 2a 3f 2d 7c 3a bf 77 29 f8 be
       0.69886786 0.6667723 -0.7284573 -0.48469135
0000e0 34 a6 a8 bd ac 6b 35 3f 7b de 90 3e 32 82 ec be
       -0.08234826 0.7086742 0.2829474 -0.4619308
0000f0 a2 88 65 be 08 af 44 3d 10 a7 81 3d 02 26 d1 be
       -0.22415403 0.048018485 0.06330693 -0.4084931
000100 ee 8a 30 3e db 27 6d bf 43 b8 66 3f cf dc ba 3e
       0.17240497 -0.9263894 0.9012491 0.3649659
000110 28 cd e2 bb c0 a1 06 bf ae 80 cd 3d ac bf 9a be
       -0.006921429 -0.5259056 0.10034309 -0.3022436
000120 70 0b cc bd 6a 54 7d 3e 31 4d 82 be 84 2b 30 3e
       -0.09963119 0.24739233 -0.25449517 0.172041
000130 8e 56 18 3f 88 97 a1 be 53 cd 9e be 8c 3d bd 3d
       0.5950707 -0.31560922 -0.31016025 0.09240255
000140 16 f0 aa 3e 07 a0 48 be d3 8d d5 3b dd 2e 78 3c
       0.33386296 -0.19592296 0.006517151 0.015147892
000150 6e 8f 8e 3d 3b 08 25 be 64 e7 13 be 5e c7 48 3d
       0.06960951 -0.16116421 -0.14443737 0.049018256
000160 04 e4 2d 3e 2f 8f b2 bd ac db a4 3e 23 ed 59 3e
       0.16981512 -0.08718716 0.32198846 0.21281867
000170 ac 14 12 bf 4e 3f d2 3e b6 0f 50 3b 45 a6 91 3d
       -0.5706279 0.41063923 0.0031747646 0.071117915
000180 05 cc 18 bf a1 92 8e 3e 98 3f 57 bf 40 e2 6f be
       -0.5968631 0.27846244 -0.8408141 -0.23426151
000190 e8 36 63 3e 62 da ef 3d 27 b3 69 3f db 7d 7a be
       0.22188914 0.11711575 0.9128899 -0.24462073
0001a0 4c 33 68 3f 51 a8 93 be 5d fc e4 bd 85 85 34 be
       0.9070327 -0.28839353 -0.11180947 -0.17629059
0001b0 e1 c4 0f bf 06 c7 86 bc 4a fa a1 3e 0c 2c 01 bf
       -0.5615979 -0.016452324 0.31636268 -0.50457835
0001c0 4e 8c ad be 39 bf 7e be 22 a2 70 be 86 1b c2 3d
       -0.33896106 -0.24877633 -0.23499349 0.09477906
0001d0 d8 45 bb 3d 83 76 31 3f 0e fc c8 bc c4 dd 2c bd
       0.09144181 0.6932146 -0.024534252 -0.04220368
0001e0 17 ab a0 3d 6c ca 0f 3e 96 8b cf bd 0a 41 b2 be
       0.07845133 0.14042062 -0.10134046 -0.34815246
0001f0 cc e2 c9 3e 69 b3 24 bf d3 26 ce 3e 18 fc c8 be
       0.39430845 -0.6433626 0.40263996 -0.39254832
000200 f4 60 39 3f 77 b5 00 3f 6f 4e 2e 3e 58 d9 2c be
       0.72413564 0.50276893 0.17022108 -0.16879785
000210 26 a4 9d 3e 9b 60 d7 bd d6 9d e6 3e 2b e6 07 be
       0.30789298 -0.10516473 0.45042294 -0.13271396
000220 9b a9 86 3d 95 95 c9 be 38 e8 19 3e 9d 68 05 be
       0.065753184 -0.39371935 0.1502999 -0.13028188
000230 a9 43 34 be b7 4b 1a 3f 5a 60 60 3f 8d 39 0e bf
       -0.17603935 0.6027178 0.8764702 -0.55556566
000240 98 56 7b 3c 4d 7b 24 3e 70 58 9f bd 56 3c b3 3e
       0.01534047 0.1606266 -0.0778054 0.3500697
000250 fc f1 18 3e 41 9f c7 be ac 5a 7b be b9 ed 97 be
       0.1493606 -0.3898869 -0.24546307 -0.29673555
000260 94 2d 08 3b 33 40 10 bf 8f c5 61 be 9b af 29 3d
       0.002077912 -0.5634796 -0.22048019 0.041427236
000270 db 7f a1 3e d9 13 10 bf e0 16 5c 3e 27 01 2a 3e
       0.31542858 -0.56280285 0.21493101 0.16602002
000280 d8 52 a7 be 41 cf fc 3d 78 f0 71 3e b5 3a 6a be
       -0.32680392 0.12344218 0.23626888 -0.22873957
000290 81 38 ff 3e 2b 26 98 3e e3 f9 03 bf 99 75 cc be
       0.49847797 0.2971662 -0.5155317 -0.3993347
0002a0 85 90 63 3f 5d c0 b5 3e 10 80 98 3d d4 98 b2 3e
       0.88892394 0.35498324 0.07446301 0.34882224
0002b0 74 aa 84 b9 ac b9 5e be ac 88 e5 bd 4c bc e6 3e
       -0.00025304 -0.21750516 -0.11207709 0.45065534
0002c0 73 7d f4 3d 55 b4 cf 3d c3 94 30 3f 9d 19 23 bf
       0.1193799 0.101418175 0.6897699 -0.6371096
0002d0 e9 08 62 be 68 e8 61 be 82 5d 99 bf c7 5b 29 bf
       -0.22073711 -0.22061312 -1.1981661 -0.66155666
0002e0 40 2d b7 be ce d6 c1 be cf a0 83 bb 0e 21 9b be
       -0.3577671 -0.37859195 -0.0040169726 -0.30298656
0002f0 44 40 85 be 65 13 a6 3d d0 7c 0e bf 69 16 1a be
       -0.26025593 0.08109168 -0.556592 -0.15047611
000300 e7 cf 6e 3e 35 19 55 3f f6 b1 23 3e 51 a4 90 3d
       0.23321496 0.8324159 0.15985855 0.07062591
000310 6d 83 88 3e 7c 31 7c be 09 35 99 bb 4a ea 84 bd
       0.2666277 -0.24628252 -0.0046755117 -0.064899996
000320 5d 79 b8 3d 8b b1 8d be 25 59 3c 3c bd b4 a6 be
       0.09007523 -0.27674517 0.011495863 -0.32559767
000330 5f 51 94 bd cd ec 7f 3d 6d c8 10 bd 52 c9 29 3e
       -0.07242083 0.06248169 -0.03534739 0.16580704
000340 ec c3 9f 3b 11 1e 59 3e 3e b1 1f bf 2a bc 07 3e
       0.0048756506 0.21202876 -0.62379825 0.13255373
000350 0b 2b f0 be b2 3d 16 be 96 af 84 3d 2d 35 02 3f
       -0.4690784 -0.14671972 0.06478803 0.5086239
000360 94 8b 25 bf 07 77 87 bd ef 74 59 be 91 f4 19 3f
       -0.64666104 -0.066144995 -0.21236013 0.60138804
000370 5e 94 9c 3e 4d 0d cb 3d 38 fe a8 3e 9f e3 a2 3d
       0.30581945 0.09914646 0.33006454 0.079535715
000380 79 46 db be 02 e2 53 be b4 65 20 be be f5 d5 bd
       -0.42827204 -0.20691684 -0.15663797 -0.10447262
000390 b4 a2 d5 3d 94 d5 09 3e db 5e 04 bc 1f 67 d5 3e
       0.10431424 0.1346038 -0.008079256 0.41680238
0003a0 c5 cc a0 3e 42 9f 17 be 2e ea e2 3e ca 0a ea 3e
       0.31406227 -0.14806846 0.4431929 0.45711356
0003b0 8e 7f 20 3e 9f 19 37 3e 64 4c 19 3f 9b 30 96 3e
       0.15673658 0.17880867 0.5988219 0.29333958
0003c0 9f 85 d0 3d 80 e6 47 3e ec a5 0f 3f af d5 37 3e
       0.10181736 0.19521523 0.5611255 0.17952608
0003d0 20 63 07 3f d1 41 e2 3d 5b b7 d2 3e 05 8c 2e 3f
       0.5288563 0.1104771 0.41155514 0.681824
0003e0 29 f7 00 3e 20 b6 29 be 8e b8 0f 3e 48 84 d9 3d
       0.12594284 -0.16573381 0.14035246 0.10620934
0003f0 5b b5 d7 be 10 52 26 bf 76 9a de 3d 65 92 dc be
       -0.4213055 -0.6496897 0.10869305 -0.4308044

tcr_lstm.weight_hh_l1 f4 [120, 30]
000000 10 3f e3 be 93 e1 46 3f 40 39 ce 3e 32 e9 f4 be
       -0.4438405 0.7768795 0.40278053 -0.47834164
000010 93 f7 3b be 35 4d c8 be 19 6f cb 3d 61 12 b6 be
       -0.18356161 -0.39121404 0.099332996 -0.35560897
000020 c9 17 b5 bd 68 bc 8a 3c 63 65 9c 3e 3d fe 68 3f
       -0.08842427 0.016935542 0.30546102 0.91012937
000030 37 b4 5c be ef 05 a5 bd e7 6a a7 3d e7 ae 5f 3e
       -0.21553122 -0.08057772 0.08174687 0.21844064
000040 0c 0e 3b bf 04 70 68 be 86 91 8b 3f 75 eb a2 bf
       -0.7306831 -0.2269898 1.0903785 -1.2728106
000050 fe 2d 9c be 88 74 c8 3d d7 54 01 be 16 3f 84 3e
       -0.3050384 0.097878516 -0.1263002 0.2582938
000060 06 dc 63 bf 4f 67 aa be fa 4e 6e be 25 87 e3 be
       -0.89007604 -0.33281943 -0.23272315 -0.44439045
000070 d7 b3 0d bd 74 72 e3 3d af 98 21 3e 4c 37 98 3e
       -0.034595337 0.111058146 0.157809 0.29729688
000080 f6 46 d2 3e 53 2e 7c 3e 58 2d 1d bd 49 8c 59 3f
       0.41069764 0.24627046 -0.03837332 0.84979683
000090 02 e5 99 3f c2 59 2c 3f 75 49 38 3f c3 49 4a 3f
       1.2023013 0.6732446 0.71987087 0.790188
0000a0 ff 2d dd 3e 1c 8d d7 3e 2e ac 71 be dd 56 24 bf
       0.43199155 0.42099845 -0.23600838 -0.6419504
0000b0 7e d7 33 bf 6f ae a3 3d 21 2d 68 3d a8 54 45 3f
       -0.7025069 0.07992255 0.056683663 0.770823
0000c0 7d 46 33 bd d2 cd 72 bd e5 6b 21 be f7 45 d8 3d
       -0.043768395 -0.059278317 -0.15763815 0.1056022
0000d0 98 f4 80 be d8 d6 9b be d6 4d b0 3d 6f a2 fc bd
       -0.2518661 -0.3043735 0.08608596 -0.12335669
0000e0 b7 ed ab 3e c5 0e fa 3b d0 b2 e5 3c a5 8b 05 bf
       0.335798 0.007631155 0.028039366 -0.52166206
0000f0 fa 4f 2a be 2c 49 45 be bf 2b bb 3d 76 7a 87 3f
       -0.16632071 -0.19266194 0.09139203 1.0584247
000100 8d b4 90 3b b1 cf 9b be dd c0 c1 3e e4 f0 fd be
       0.0044160546 -0.30431893 0.37842456 -0.49597847
000110 dc 59 eb 39 9d 17 da be 3e b7 36 3e 92 6d 02 3f
       0.00044889643 -0.4259614 0.17843339 0.5094844
000120 5d 38 d9 be a4 ac 1b bd f5 0f 65 be 12 24 69 3f
       -0.42425814 -0.03800644 -0.22369368 0.91070664
000130 f8 ee 0b 3f b3 cd e3 be 22 6f c6 3e 25 cf f1 be
       0.5466151 -0.44492874 0.38756663 -0.4722835
000140 a6 de 1c be 8c f6 cb bd 4b 6e c2 3e 2f 5d f5 3e
       -0.15319309 -0.099591345 0.37974772 0.47922656
000150 14 6c 04 bf e8 2c 91 3e 5d 7e b7 be 0d d2 8d bf
       -0.51727414 0.28354573 -0.35838595 -1.1079727
000160 ff 7a 07 3e 34 c9 cf bd ba b2 7b 3e ae a8 04 3e
       0.13230513 -0.10145798 0.24579898 0.12954971
000170 ee d3 e3 3e dc 86 e7 be ee 0f 6e be ca ee 61 be
       0.44497627 -0.45220077 -0.23248264 -0.22063747
000180 ab db bd 3e b6 0d 85 3e 3e f0 8a 3e d4 12 d9 3d
       0.37081656 0.25987023 0.27136415 0.10599294
000190 d3 e5 5d 3e df 4a 01 3f a3 7c 04 3f e6 e3 10 bd
       0.21669702 0.5050487 0.5175268 -0.03537359
0001a0 26 fb d6 be b4 68 41 bf e1 27 4f 3e c2 8e e5 3d
       -0.41988486 -0.7555039 0.20230056 0.112088695
0001b0 50 d0 ef 3e 13 36 40 be b0 ee 80 be a4 36 23 bf
       0.46838617 -0.18770628 -0.25182104 -0.6375525
0001c0 4a a1 3e bf 0d 98 a0 3d e0 e5 0e bf 6c 13 9d bd
       -0.7446486 0.078415014 -0.5581951 -0.0766972
0001d0 3b 57 b3 be 4c d4 05 3e 30 76 68 3e e8 08 29 bd
       -0.3502749 0.13069266 0.22701335 -0.04126826
0001e0 59 41 e8 bd 92 9a 06 be cc 1f cb 3e 62 b1 94 be
       -0.11340589 -0.13144901 0.39672697 -0.29041582
0001f0 3e 55 34 be a7 3a 03 bf 99 95 8f bd 54 cc 53 bf
       -0.17610642 -0.5126137 -0.07010955 -0.82733655
000200 e1 2b 6b 3e a4 0a ad be ea 83 20 3f 23 39 ac 3d
       0.22965957 -0.3379718 0.62701285 0.084093355
000210 be 1c 05 bd 11 a0 5f 3f 4e 0f 25 3e 23 8a b7 3e
       -0.032498114 0.87353617 0.1611912 0.35847577
000220 87 4d b7 3e fc 22 d1 be 81 eb b8 be d7 0d cf bf
       0.35801336 -0.40847003 -0.36117175 -1.6176099
000230 65 e3 03 bf 27 7d 3f bd 8a 18 b9 bc 83 ec 56 3f
       -0.5151885 -0.046750214 -0.022594709 0.8395464
000240 78 8f cf 3c 8b b6 d9 be 30 17 0b bf 63 47 54 3f
       0.025336966 -0.42522082 -0.54332256 0.8292143
000250 aa 9e 6e be 88 b7 d9 bc 5f af 01 bf be ae 1d 3f
       -0.23302713 -0.026576772 -0.5065822 0.6159476
000260 ce 67 2f 3f 39 61 f5 be 6a fc f4 3d 94 f6 f5 3e
       0.6851777 -0.47925738 0.11962207 0.48039687
000270 b1 c1 77 3e 62 e7 43 3f 6a 57 cc be 4f a1 3c bd
       0.24194981 0.7652494 -0.39910442 -0.046052273
000280 a7 36 18 bf f5 3c ab bd da c0 a8 3e e1 cf c5 bd
       -0.5945839 -0.08361236 0.32959634 -0.096587904
000290 2b 81 05 3d 27 3c 32 be c2 f8 eb 3c cb 48 92 bd
       0.032593887 -0.17405759 0.02880514 -0.071427904
0002a0 89 8b b1 3e 1c 7b 35 bf db f7 30 bf 1d 02 37 3e
       0.3467677 -0.70890975 -0.691282 0.178719
0002b0 22 b0 fd 3e da 6b e7 3e 6f 8e e5 bd fd 8d 2e bd
       0.4954844 0.45199472 -0.11208808 -0.04261588
0002c0 b8 de cb be e7 df 97 be f2 dc 1f 3f c3 18 60 be
       -0.39818358 -0.2966301 0.6244651 -0.21884446
0002d0 c1 47 a0 bc dc 8d 78 3f fe ed 9c 3d 2f 70 65 be
       -0.019565465 0.9709146 0.07662581 -0.22406076
0002e0 46 f1 ef be f1 45 9c 3e f8 da 84 3e 52 5c cf 3d
       -0.46863765 0.3052211 0.2594831 0.101250306
0002f0 15 51 94 be 6c 39 dc be d4 0b 82 bf e3 22 e2 3d
       -0.2896811 -0.4301256 -1.015986 0.1104181
000300 09 7d c2 3e fc bf 1e 3d fe 4b fa 3d 24 16 29 be
       0.3798602 0.03875731 0.122215256 -0.16512352
000310 5b a7 b7 3e ac 8e fa 3e ac 06 be 3e 83 31 ea be
       0.3586987 0.48936975 0.37114465 -0.457409
000320 54 61 20 be 71 b5 25 3e c8 1a 58 3f 4d f1 f5 bd
       -0.15662128 0.16182496 0.84415865 -0.12008915
000330 d3 55 b6 bd 1a 2c 63 bf b7 b4 ae be 57 b5 f2 3e
       -0.089030884 -0.8873917 -0.3412225 0.47403976
000340 b7 88 ff bd 14 f7 91 3d 75 30 c3 bd 74 b0 46 3f
       -0.12477248 0.071272045 -0.09530727 0.77612996
000350 29 c3 25 3e 87 1d 2f bd b7 5d 36 3e 4d dc 12 3e
       0.16187729 -0.04275277 0.17809187 0.1434185
000360 88 72 bf 3c 98 2f 54 be 04 21 76 be a6 ec 90 3e
       0.023370042 -0.2072128 -0.24036032 0.28305548
000370 af d7 e2 3e b0 32 21 3f f8 33 b5 be 43 5b 05 bf
       0.4430518 0.6296797 -0.35391212 -0.5209238
000380 54 51 38 3e 2a e9 9f be 2b 2e 82 bf 3f 48 ed be
       0.17999774 -0.31232578 -1.0170339 -0.46344182
000390 53 7c 94 3e ac 6b f0 be 94 e9 c5 bc 37 da c2 3e
       0.29001102 -0.46957147 -0.02415923 0.3805711
0003a0 f7 58 49 bf 79 6e 11 bf ff 40 e0 3e 14 60 fc 3e
       -0.78651375 -0.5680919 0.43799588 0.49292052
0003b0 0a 17 ce 3e 75 fe 98 3e b0 ed 8b 3f 97 59 b4 bd
       0.40251952 0.29881635 1.0931911 -0.088061504
0003c0 6a 70 03 bf a5 7b ca bf f8 24 f3 bd eb 2b 07 3f
       -0.51343405 -1.5818983 -0.118722856 0.5280139
0003d0 2e 5a 1d be f9 25 8c be f3 cb 95 3e 18 43 72 bf
       -0.15366432 -0.2737272 0.29257163 -0.94633627
0003e0 b2 87 87 be 7f 37 3a 3e 37 78 57 bf 6d 22 f1 3c
       -0.26470715 0.18185233 -0.8416781 0.02943536
0003f0 71 69 98 bf cd 97 81 be 08 48 ca be ed a0 8b 3e
       -1.1907178 -0.25311127 -0.3950808 0.27271214

tcr_lstm.bias_ih_l1 f4 [120]
000000 13 6d 85 3d 5d 47 95 be 62 05 c9 3e 7b e3 61 3e
       0.06514945 -0.29156008 0.3926192 0.22059433
000010 3d 6f a1 3e 5d ef 3c be 30 c5 bc 3d 3c 31 15 39
       0.3153018 -0.18450685 0.09217298 0.00014228089
000020 ab f2 a6 3e 6d 19 3f be 8d 5a ae 3e f9 46 a1 3d
       0.32607016 -0.18662043 0.3405346 0.07874865
000030 1f 0d fd bd 94 b5 bc 3d 5f 8d 16 3f 38 25 cb 3e
       -0.12356018 0.09214321 0.58809465 0.39676833
000040 97 48 03 3e 76 ba 62 3e c4 0b 9c 3d f3 39 c0 3e
       0.1282066 0.22141442 0.076194316 0.37544212
000050 73 23 6a 3e bf 6f 2e 3d c3 8a 52 3e 8d d1 e6 3e
       0.22865085 0.042587038 0.20560746 0.4508175
000060 b9 3e 74 3e 3f 02 2e 3c c4 c0 7a 3e 7e ea f6 3d
       0.23852052 0.010620653 0.24487597 0.120564446
000070 06 15 81 3d a2 d5 f3 3e 00 3e ba 3d c4 52 15 be
       0.06302838 0.47623926 0.09093857 -0.14582354
000080 91 86 a3 3d 84 e3 23 3c fa 68 a9 3e 77 77 ab be
       0.07984651 0.010002974 0.33087903 -0.33489582
000090 a0 97 b1 3e b3 a3 4f bc 58 3e cf 3d e5 23 9f 3e
       0.34685993 -0.012673306 0.10119313 0.31082073
0000a0 c0 4a c9 3e 03 db fd 3d cc d1 9e 3e de ca 3c 3d
       0.39314842 0.12395289 0.31019437 0.046091907
0000b0 9b e4 db 3d a7 a6 a8 bd b3 92 3e 3e 92 b1 90 3e
       0.107369624 -0.082349114 0.18610649 0.28260475
0000c0 d3 04 04 3f 42 37 41 3e 9e 79 1a 3e 8f 8e 95 3e
       0.5156986 0.18868735 0.15085456 0.29210326
0000d0 bc 96 04 3d 01 48 54 3e c4 03 48 3e 57 07 08 3f
       0.032370314 0.20730592 0.19532686 0.531362
0000e0 6d 6a 5d 3e 5d 50 8a 3e 6f 24 59 3e 00 59 52 3d
       0.2162263 0.27014437 0.21205305 0.05135441
0000f0 09 7f b6 3d 07 6d 01 3e 7b d4 ea bd a4 93 d6 3e
       0.08910949 0.12639247 -0.11466309 0.41909516
000100 dd 5d fe bd fd 27 81 be 64 87 e2 bd b4 91 d1 be
       -0.12420247 -0.2522582 -0.1106098 -0.40931475
000110 c4 8a 4c 3d 06 fb 1b bd 61 6e da be 0e 4c d1 3d
       0.049937025 -0.03808119 -0.42662337 0.102195844
000120 62 de 24 3e b9 2f 65 be cc 0e c6 bd 59 96 10 bd
       0.16100457 -0.22381486 -0.09670791 -0.035299633
000130 38 d1 15 3d 79 b9 67 3e 90 d7 de 3d 80 d9 7e 3d
       0.03657648 0.22629346 0.10880959 0.062219143
000140 b3 20 c0 be c4 61 0e be 57 1d 0f be 5d 66 bb bd
       -0.37524948 -0.13904482 -0.13976036 -0.091503836
000150 48 8d 99 be 07 a4 11 be a1 45 10 be 34 1e cc 3d
       -0.29990602 -0.14222728 -0.14089061 0.09966698
000160 79 9d 16 be 83 0c 7d 3d c7 8c fb bb 8a fb 44 3e
       -0.14708509 0.06177951 -0.007676694 0.1923658
000170 38 4d 14 3f 0d 81 91 3e 1e 89 bf 3e 3c d9 cc 3d
       0.57930326 0.2841877 0.374093 0.10002372
000180 f2 60 a6 3e 84 94 53 3e 31 ee 02 3f fb 39 97 3c
       0.32495838 0.20662123 0.511447 0.018460264
000190 b0 7a 60 3e 86 ce 6f 3e ed 0e 02 3f b1 ac ed 3e
       0.21921802 0.23418626 0.50804025 0.46420816
0001a0 a8 5d fa 3e 91 4c 16 3f f0 a4 e5 3e be 44 a9 3e
       0.4889958 0.5871058 0.448524 0.3306026
0001b0 0e f4 1e 3f 41 9e e4 3e 32 3c 03 3f 6a 5d 9d 3e
       0.6209115 0.44651988 0.51263726 0.30735332
0001c0 ab 6d 7c 3e cf 0c e7 3e 82 58 cb ba 9c 6e 3f 3f
       0.2465121 0.4512696 -0.0015514048 0.7477815
0001d0 a2 de 89 3d 85 65 11 3f 2d b5 76 3e 56 04 16 3f
       0.06731917 0.5679553 0.2409255 0.58600366
